simple_2d_deliver_pickup/pickup_model.pth (torch, 23441 bytes, 6 tensors)

net.0.weight f4 [64, 7]
0.051776584 0.11525415 0.3649222 0.12243481 -0.04318956 -0.035276186 0.11826727 -0.15330073
-0.20897134 0.0997356 0.14687279 -0.009228675 -0.15933947 0.2642091 -0.057656664 0.362751
-0.35531738 0.096450344 0.36527795 -0.16598293 0.11797508 0.32981575 0.19608733 -0.30202115
0.031827476 -0.18183509 -0.3138236 0.2656212 -0.16859496 -0.2842391 -0.004685828 0.16731134
-0.0058752173 0.11475791 0.21933718 0.2029116 0.33691093 -0.25362784 -0.31870422 0.16662483
-0.31825373 -0.10772031 0.24721043 0.033735443 0.025860215 0.066484734 -0.15237805 -0.21981062
0.18728602 0.039767884 -0.2766827 -0.13216996 -0.25672644 0.23551121 -0.22395544 0.1502304
0.22264102 0.11281484 -0.048989106 -0.11688424 0.11538374 -0.25236636 0.24348947 0.17195721
0.19612761 0.2676464 0.34487426 -0.15878248 -0.12576406 0.35834724 -0.10062773 0.048551988
0.04979657 0.051935945 -0.03453084 0.01503763 -0.19371992 -0.06683543 0.3334701 0.09375871
0.05893419 -0.17012031 0.047283646 0.37779027 -0.15845689 0.16646789 -0.19939673 0.30870014
0.21177548 0.29588538 0.23519486 -0.14599621 -0.0073626777 0.31174207 -0.36370876 0.04606886
0.34933245 0.015926749 0.38305646 -0.27225342 -0.24043265 0.07972981 0.39221516 -0.16168676
-0.25473216 -0.02282739 -0.35030594 0.21618834 -0.06024979 0.11123134 0.14720598 0.32285854
-0.33872586 -0.014139953 0.1025334 0.21089114 0.16825248 -0.19738925 -0.20254394 -0.12553208
-0.33352906 -0.124705285 -0.27551404 0.27633995 -0.1843121 0.11587826 0.38932335 -0.037334505
-0.2871187 0.333339 0.28817445 -0.033459768 -0.24204122 0.27530697 0.38517874 -0.26908743
0.38083583 -0.0759264 0.070792034 0.19441059 -0.034291934 -0.08217386 0.2476649 0.045652397
-0.083493546 0.23475806 -0.021836273 0.32320464 -0.15328942 0.04122941 -0.13488692 0.27823257
-0.105023645 0.10012048 0.09737178 -0.25432953 -0.30872357 -0.12988208 -0.1367579 -0.102414995
-0.10814619 -0.05455959 -0.0527798 0.05579278 -0.09377238 0.32140985 0.28974357 0.12221407
0.009592723 -0.17670408 0.15963791 -0.104504704 -0.29448026 -0.0018440199 0.29430255 0.03694735
-0.26648962 0.10315225 0.111041985 0.1239933 -0.31552565 0.054291192 -0.18344784 0.19216393
0.18259715 -0.10496577 0.08368469 0.22392443 -0.25493568 0.18885243 0.08427132 0.22290929
-0.26974848 -0.114683695 0.23774707 -0.30905727 0.24646747 -0.11747041 -0.11553588 -0.073109835
0.09119697 -0.2394848 -0.08175611 0.40668267 -0.34417105 0.12391729 0.10650946 0.061273813
-0.2530193 0.32458788 0.0769544 -0.34837878 -0.14579278 0.1804178 0.0028064824 -0.14538042
-0.09556235 0.29392967 -0.12079571 0.21338552 0.05090441 0.2595136 -0.25143787 0.36168247
-0.29948804 -0.1495965 -0.19169264 0.2575206 -0.05441548 0.2959608 -0.04418259 0.01890259
0.193188 -0.32202846 -0.116142 -0.03986148 -0.06359482 -0.24923341 0.31826362 -0.31191006
-0.14739259 0.3429064 0.1610575 0.31822824 0.3289142 0.25152674 -0.31150964 -0.091009505
-0.26466712 -0.1477163 -0.15838765 -0.20479693 0.14619622 -0.34582585 0.3687723 -0.22607636
00000000: af13 543d 5e0a ec3d 15d7 ba3e 1abf fa3d
00000010: 89e7 30bd c37d 10bd 1c36 f23d defa 1cbe
00000020: 95fc 55be 2e42 cc3d d265 163e de33 17bc
00000030: e329 23be 6a46 873e 6529 6cbd 80ba b93e
00000040: 29ec b5be c287 c53d b605 bb3e 6ef7 29be
00000050: eb9c f13d 9cdd a83e 1ecb 483e 84a2 9abe
00000060: 875d 023d fa32 3abe 7dad a0be 80ff 873e
00000070: 28a4 2cbe ca87 91be 938b 99bb aa53 2b3e
00000080: e584 c0bb 3206 eb3d ed99 603e 0fc8 4f3e
00000090: 977f ac3e 82db 81be 332d a3be b39f 2a3e
000000a0: 27f2 a2be 779c dcbd bb24 7d3e 2d2e 0a3d
000000b0: cdd8 d33c 2629 883d fe08 1cbe 0916 61be
000000c0: e8c7 3f3e a6e3 223d 5ba9 8dbe 9057 07be
000000d0: a671 83be da29 713e 9354 65be ffd5 193e
000000e0: 02fc 633e 780b e73d cda8 48bd 0161 efbd
000000f0: 4f4e ec3d 2a36 81be 4e55 793e 8d15 303e
00000100: add5 483e f308 893e 5c93 b03e e097 22be
00000110: 4bc8 00be 4a79 b73e e915 cebd 73de 463d
00000120: 7df7 4b3d c9ba 543d 3670 0dbd 6460 763c
00000130: 845e 46be 04e1 88bd 98bc aa3e 9104 c03d
00000140: fa64 713d 0534 2ebe 7fac 413d ba6d c13e
00000150: 8642 22be 8f76 2a3e a82e 4cbe f20d 9e3e
00000160: acdb 583e 4a7e 973e ecd6 703e 0880 15be
00000170: 9e42 f1bb a89c 9f3e 0938 babe b3b2 3c3d
00000180: b4db b23e d078 823c fa1f c43e cd64 8bbe
00000190: fa33 76be 6249 a33d 6dd0 c83e 3791 25be
000001a0: 416c 82be 8200 bbbc 4d5b b3be 7a60 5d3e
000001b0: 7cc8 76bd 42cd e33d 2abd 163e b74d a53e
000001c0: 7a6d adbe 43ab 67bc 08fd d13d d9f3 573e
000001d0: 614a 2c3e 6820 4abe ae67 4fbe 7b8b 00be
000001e0: 52c4 aabe 7c65 ffbd 2d10 8dbe 6e7c 8d3e
000001f0: 50bc 3cbe 9551 ed3d 6455 c73e 11ec 18bd
00000200: 3901 93be 69ab aa3e 9a8b 933e 1c0d 09bd
00000210: a7d9 77be 09f5 8c3e 2636 c53e d4c5 89be
00000220: eafc c23e 4d7f 9bbd 6afb 903d 9213 473e
00000230: b375 0cbd c54a a8bd de9b 7d3e 02fe 3a3d
00000240: aafe aabd 6b64 703e fce1 b2bc 147b a53e
00000250: e7f7 1cbe 2be0 283d cc1f 0abe 8074 8e3e
00000260: a316 d7bd f70b cd3d db6a c73d 7b37 82be
00000270: 0411 9ebe cfff 04be 430a 0cbe f4be d1bd
00000280: c07b ddbd e079 5fbd a22f 58bd f886 643d
00000290: bc0b c0bd d58f a43e 4559 943e 5f4b fa3d
000002a0: cc2a 1d3c eaf1 34be 1f78 233e 9006 d6bd
000002b0: 1ec6 96be 0ab3 f1ba d3ae 963e 1b56 173d
000002c0: 5471 88be 7d41 d33d fb69 e33d 33f0 fd3d
000002d0: 948c a1be 7160 5e3d c0d9 3bbe 9fc6 443e
000002e0: bffa 3a3e 4bf8 d6bd e162 ab3d 724c 653e
000002f0: ee86 82be 8862 413e 7196 ac3d 5542 643e
00000300: 791c 8abe 49df eabd f873 733e c13c 9ebe
00000310: f861 7c3e 5494 f0bd 139e ecbd 9cba 95bd
00000320: 7ac5 ba3d 813b 75be bf6f a7bd b638 d03e
00000330: 3037 b0be 59c8 fd3d a221 da3d 40fa 7a3d
00000340: bf8b 81be 6230 a63e 459a 9d3d b45e b2be
00000350: b44a 15be 72bf 383e f6ec 373b 9bde 14be
00000360: 31b6 c3bd f37d 963e be63 f7bd bc81 5a3e
00000370: 2581 503d f7de 843e 77bc 80be 722e b93e
00000380: 7f56 99be d32f 19be 134b 44be bdd9 833e
00000390: c4e2 5ebd 2d88 973e cef8 34bd 9bd9 9a3c
000003a0: 13d3 453e eae0 a4be dbdb edbd cb45 23bd
000003b0: 003e 82bd 0b37 7fbe 73f3 a23e adb2 9fbe
000003c0: 15ee 16be 6d91 af3e 42ec 243e d0ee a23e
000003d0: 7167 a83e 1dc8 803e 317e 9fbe 3163 babd
000003e0: 7382 87be f142 17be 5f30 22be 49b6 51be
000003f0: 76b4 153e 1610 b1be b9cf bc3e 9080 67be

net.0.bias f4 [64]
-0.0164851 0.0517393 -0.16497023 -0.32768375 0.30550408 -0.14654556 -0.15800884 0.09196167
-0.0014563373 0.051481754 0.092346385 0.27510688 0.28539252 0.33651587 -0.33449027 0.025790252
0.17689742 0.011185848 0.19050995 0.23042332 -0.16686627 -0.2816273 0.27700174 -0.1606392
-0.17734219 0.1178805 -0.19870414 -0.3556278 -0.15293948 0.037516598 -0.071210876 -0.06325493
0.28350553 -0.10592045 0.038300965 -0.043996517 -0.10403657 0.3216994 -0.19333903 0.18765995
0.26237115 0.047927175 -0.09766875 0.1599402 0.0019260399 0.19391498 -0.3000802 0.25342876
-0.19534697 -0.21473101 0.063406006 -0.09238591 -0.25150546 -0.095047854 -0.35153943 0.14115103
-0.04787996 -0.22291389 0.016816672 0.06249763 0.16524753 0.13632116 0.2051193 -0.030312154
00000000: c30b 87bc 97ec 533d f5ed 28be 2ac6 a7be
00000010: 086b 9c3e 0a10 16be 12cd 21be 6656 bc3d
00000020: 92e2 beba 88de 523d 1a20 bd3d cfda 8c3e
00000030: f81e 923e cf4b ac3e 4f42 abbe 1446 d33c
00000040: 9924 353e d944 373c 0a15 433e 17f4 6b3e
00000050: fede 2abe 7431 90be 2cd3 8d3e 9a7e 24be
00000060: 3199 35be 556b f13d 1979 4bbe d914 b6be
00000070: 2b9c 1cbe 01ab 193d 02d7 91bd cd8b 81bd
00000080: a327 913e d2ec d8bd 79e1 1c3d b135 34bd
00000090: 2011 d5bd c9b5 a43e abfa 45be ee29 403e
000000a0: 8355 863e 494f 443d 8e06 c8bd 5dc7 233e
000000b0: 2d73 fc3a a691 463e 1da4 99be 6ac1 813e
000000c0: 0909 48be 72e2 5bbe 02db 813d d334 bdbd
000000d0: 53c5 80be 73a8 c2bd fafc b3be e589 103e
000000e0: c71d 44bd 8a43 64be 1ec3 893c 84fd 7f3d
000000f0: a636 293e c697 0b3e cb0a 523e 3251 f8bc

net.2.weight f4 [64, 64]
-0.08533458 -0.12117207 0.11152435 0.012798157 0.045985963 -0.051835336 -0.012085203 -0.035247236
0.0005255802 -0.070427455 0.0934438 -0.08313155 -0.048605744 0.076175265 0.009582798 -0.09483541
-0.12422553 -0.028179515 0.08896024 0.038027246 -0.09126396 0.016449856 0.029038459 -0.103991136
0.101454616 0.10821961 0.0076549426 -0.076928444 0.0332893 0.11449773 0.011053942 0.13661243
0.097143926 0.06398785 0.027073562 -0.0135762645 -0.015249679 0.0021326926 0.07466497 -0.0013193404
0.042064447 0.1305943 -0.10695935 0.038374364 0.12934369 0.055339254 0.06354835 0.0121985935
0.02559125 0.049938332 0.12529732 -0.02734673 -0.017194003 -0.036421817 -0.088089146 0.09317444
0.022513257 0.06737671 -0.07102683 -0.03849867 0.06264199 0.039917536 -0.054541875 0.0528836
-0.11581142 0.080782525 0.07267897 -0.003982549 -0.01521861 0.046171617 0.07292067 0.04070711
-0.0943258 0.11824154 0.019394875 -0.030405035 -0.023111688 0.08363403 0.115442 0.10609758
0.06382828 -0.006268935 0.11120804 0.014129559 -0.0021855023 0.12046018 -0.069362685 0.04097844
0.08809978 -0.02601914 -0.07698877 -0.033277344 0.045648172 0.015729256 -0.05520723 -0.1065124
0.10428517 -0.06936251 0.058623042 0.030339152 -0.003960985 -0.021948965 -0.00020257905 -0.07863728
0.058123592 0.08105089 0.020382736 0.1070624 -0.08632346 0.0008169879 0.14708608 -0.10564806
-0.058050647 0.017602721 0.013705871 -0.0046114116 0.017728105 0.08307458 0.06706598 -0.12067391
0.030779736 0.1349689 0.062243745 0.092716634 0.12127286 0.06646934 0.029052425 -0.007073146
-0.13543367 -0.042967305 0.028665463 -0.05838279 -0.024458285 -0.08780794 -0.00013743917 -0.107404396
-0.11648262 -0.052464418 -0.103943594 -0.12538241 -0.018779336 -0.12914051 -0.106443144 -0.07431709
-0.07748664 -0.11724719 -0.121050276 0.048333563 0.05254921 0.030284489 0.106819436 0.0064234063
0.09706187 0.018554958 -0.010715428 -0.029829731 0.103653066 0.0072331317 -0.029305289 0.028746558
-0.0866005 0.034015723 -0.11051301 0.0907926 0.07453688 0.031800717 -0.124549694 0.017755076
0.07136144 0.037179 -0.018699978 -0.023247916 0.05097653 0.018014688 0.09312936 0.0025356114
-0.067309506 -0.095484 0.10210692 0.05612099 -0.06519091 -0.13622916 -0.13179897 0.012363464
-0.07274018 0.027782723 0.09202923 0.09960685 -0.029010221 -0.07214203 0.013987509 0.01750391
0.117576964 0.08325947 0.008315325 0.09690586 -0.01707474 -0.0004883015 0.1045864 -0.06814107
0.10099547 0.06823833 0.11318561 0.05019368 -0.06281501 0.07087391 0.09852238 -0.09325308
-0.111206345 -0.04642245 -0.097088255 -0.10976426 -0.013016824 -0.033809233 -0.03609714 -0.11655598
0.09982885 -0.058529977 0.004718972 0.02928408 0.10513987 -0.11002225 0.1184429 0.0930942
0.04528797 -0.03271009 0.08039636 0.08919209 -0.062454067 0.058410063 0.06012007 -0.0066300635
-0.0068938476 -0.023953335 0.08958297 0.05843356 0.055360027 -0.047510654 0.057348248 0.064969
-0.0095166275 0.0731931 -0.12375599 -0.023802048 0.038645387 0.019956687 0.0074843825 0.025867566
-0.11416731 0.028995797 -0.07836427 0.0868652 0.10207088 -0.033661492 -0.0262185 0.030745102
00000000: e5c3 aebd 1029 f8bd e166 e43d 5caf 513c
00000010: c75b 3c3d 4a51 54bd 0401 46bc 685f 10bd
00000020: 17c7 093a 453c 90bd 775f bf3d e040 aabd
00000030: d116 47bd c701 9c3d 2b01 1d3c 1139 c2bd
00000040: f469 febd bad8 e6bc c930 b63d 75c2 1b3d
00000050: 99e8 babd d9c1 863c 10e2 ed3c 4ef9 d4bd
00000060: 70c7 cf3d 3ea2 dd3d 50d6 fa3b a98c 9dbd
00000070: 5c5a 083d c97d ea3d 981b 353c 21e4 0b3e
00000080: 65f3 c63d 100c 833d 60c9 dd3c fb6e 5ebc
00000090: cad9 79bc a5c4 0b3b f3e9 983d b8ed acba
000000a0: c54b 2c3d 83ba 053e 810d dbbd 702e 1d3d
000000b0: ac72 043e 6aab 623d a325 823d 9cdc 473c
000000c0: bea4 d13c 238c 4c3d f14d 003e 4006 e0bc
000000d0: 70da 8cbc 0b2f 15bd 1568 b4bd 3ed2 be3d
000000e0: b96d b83c cdfc 893d 8476 91bd c8b0 1dbd
000000f0: 724a 803d 9280 233d 4d67 5fbd 799c 583d
00000100: 8a2e edbd 4f71 a53d b6d8 943d 0b80 82bb
00000110: 7a57 79bc 731e 3d3d 6f57 953d 80bc 263d
00000120: e32d c1bd 9f28 f23d 00e2 9e3c fb13 f9bc
00000130: b954 bdbc 5148 ab3d db6c ec3d b049 d93d
00000140: 67b8 823d a36b cdbb 0ac1 e33d aa7f 673c
00000150: a53a 0fbb d4b3 f63d 060e 8ebd 02d9 273d
00000160: a86d b43d 1726 d5bc 4aac 9dbd d34d 08bd
00000170: 94f9 3a3d a4da 803c fa20 62bd 2c23 dabd
00000180: 7793 d53d ef0d 8ebd b71e 703d d089 f83c
00000190: 27cb 81bb 51ce b3bc 666b 54b9 950c a1bd
000001a0: 0113 6e3d 02fe a53d b2f9 a63c 8843 db3d
000001b0: 5bca b0bd 212b 563a bc9d 163e 035e d8bd
000001c0: 84c6 6dbd 9533 903c 978e 603c 531b 97bb
000001d0: 883a 913c 0123 aa3d e359 893d e223 f7bd
000001e0: c925 fc3c 4a35 0a3e 4cf3 7e3d 38e2 bd3d
000001f0: e85d f83d 1421 883d 5aff ed3c d9c5 e7bb
00000200: 20af 0abe 7cfe 2fbd d5d3 ea3c cb22 6fbd
00000210: be5c c8bc a6d4 b3bd 8c1d 10b9 d6f6 dbbd
00000220: 718e eebd eee4 56bd 61e0 d4bd 3f64 00be
00000230: 1fd7 99bc 693d 04be ddfe d9bd 8f33 98bd
00000240: 51b1 9ebd 4b1f f0bd 35e9 f7bd 6af9 453d
00000250: d73d 573d 2d17 f83c 26c4 da3d 707b d23b
00000260: 60c8 c63d 9100 983c c38f 2fbc 7b5d f4bc
00000270: 0f48 d43d e803 ed3b a511 f0bc e77d eb3c
00000280: 9a5b b1bd 1254 0b3d a554 e2bd 78f1 b93d
00000290: cba6 983d 7841 023d e913 ffbd 1873 913c
000002a0: f225 923d 0249 183d b230 99bc 6a72 bebc
000002b0: c4cc 503d 8a93 933c 9bba be3d 802c 263b
000002c0: 91d9 89bd 1e8d c3bd 6f1d d13d 20df 653d
000002d0: d082 85bd a87f 0bbe 4ff6 06be 2090 4a3c
000002e0: cef8 94bd 9898 e33c d279 bc3d adfe cb3d
000002f0: d8a6 edbc 33bf 93bd dd2b 653c 5c64 8f3c
00000300: 31cc f03d f183 aa3d 003d 083c 9476 c63d
00000310: 53e0 8bbc 5c01 00ba 6531 d63d 8c8d 8bbd
00000320: b7d6 ce3d 8ac0 8b3d dbcd e73d e397 4d3d
00000330: 28a5 80bd 5726 913d 1ac6 c93d 79fb bebd
00000340: 27c0 e3bd 7825 3ebd 35d6 c6bd 16cc e0bd
00000350: 8444 55bc 8d7b 0abd 98da 13bd e7b4 eebd
00000360: 1173 cc3d 21bd 6fbd 9ba1 9a3b 2be5 ef3c
00000370: 9253 d73d 5853 e1bd 3192 f23d 2ca8 be3d
00000380: e17f 393d 04fb 05bd d9a6 a43d 58aa b63d
00000390: d6cf 7fbd 643f 6f3d 7640 763d 0141 d9bb
000003a0: c9e5 e1bb c939 c4bc 4777 b73d 0758 6f3d
000003b0: 32c1 623d 889a 42bd ffe5 6a3d 780e 853d
000003c0: a1eb 1bbc 44e6 953d c873 fdbd 83fc c2bc
000003d0: a04a 1e3d 357c a33c 8d3f f53b 38e8 d33c
000003e0: 8dd0 e9bd 9888 ed3c 727d a0bd 62e6 b13d
000003f0: 8a0a d13d a2e0 09bd 2ec8 d6bc 27dd fb3c

net.2.bias f4 [64]
0.0056841704 0.074469306 0.019163758 -0.033260394 0.12524815 0.02482868 0.008791947 -0.02533399
-0.086471915 -0.07021439 -0.020229666 0.13742301 -0.0036552588 -0.10130857 0.02255452 0.061542757
0.073900335 -0.003619486 0.035151556 -0.027975844 -0.05927074 0.073801294 -0.063947625 0.034630906
0.0041139023 -0.047161397 0.100845724 0.085644074 0.07007883 0.04717046 -0.04490854 0.029967139
-0.02386868 -0.0153454775 0.002303617 0.081681065 0.019620119 0.044420145 -0.043354135 -0.1345216
-0.040959273 -0.07380737 -0.05611071 0.07800185 -0.07350852 -0.036128808 -0.098066844 -0.08755465
0.09920605 -0.120553814 -0.034805994 0.06883574 0.095261835 -0.0812597 0.09924908 0.14045098
-0.037879013 0.09193515 -0.03469524 -0.051225007 -0.08310177 0.11230354 0.05361473 0.049191695
00000000: 4742 ba3b 5d83 983d 50fd 9c3c 0d3c 08bd
00000010: 0d41 003e 8465 cb3c 190c 103c 3a89 cfbc
00000020: 3018 b1bd 90cc 8fbd afb8 a5bc 9eb8 0c3e
00000030: 118d 6fbb de7a cfbd 42c4 b83c 4214 7c3d
00000040: 0f59 973d e634 6dbb 14fb 0f3d 992d e5bc
00000050: e0c5 72bd 2225 973d f9f6 82bd 23d9 0d3d
00000060: eacd 863b 4f2c 41bd 3488 ce3d 2966 af3d
00000070: 7d85 8f3d d035 413d 04f2 37bd a57d f53c
00000080: 4088 c3bc 996b 7bbc 48f8 163b 6748 a73d
00000090: 5fba a03c e6f1 353d 1b94 31bd 08c0 09be
000000a0: e9c4 27bd 5228 97bd 58d4 65bd 6fbf 9f3d
000000b0: a38b 96bd cdfb 13bd 45d7 c8bd da4f b3bd
000000c0: 8b2c cb3d ebe4 f6bd bb90 0ebd c1f9 8c3d
000000d0: a318 c33d 7c6b a6bd 1a43 cb3d 62d2 0f3e
000000e0: 0627 1bbd 7f48 bc3d 991c 0ebd 50d1 51bd
000000f0: 4331 aabd 66ff e53d 1e9b 5b3d 3b7d 493d

net.4.weight f4 [6, 64]
-0.06277042 -0.038725246 -0.12648198 0.08946559 -0.02111474 0.036818016 -0.101175815 -0.020715777
-0.11897199 -0.09009097 0.027187832 -0.11468 -0.06727836 0.06847333 0.08065715 -0.010336813
0.040738724 0.103908755 -0.095094435 0.045160975 0.07892223 0.08502345 -0.0063369423 -0.0700805
-0.116490915 0.034912694 -0.024995616 -0.03835406 0.077784345 0.092152655 0.07251731 0.007281818
0.009907796 -0.075580746 -0.024545975 -0.03215551 0.031447027 -0.033827502 -0.064606294 0.09493251
-0.12115997 0.042362217 -0.010975587 -0.11958954 0.029639026 -0.09073138 0.059276357 0.090143085
-0.03260892 0.111658216 -0.13288398 0.08852604 0.022075968 0.0036868926 -0.03109881 -0.038834233
-0.108510464 -0.012297997 -0.069967255 -0.007906878 0.007265985 0.083370395 0.01631229 0.09957332
0.061356697 -0.09794779 -0.038468968 -0.049202845 -0.01613903 0.055519868 -0.15561962 0.09014021
-0.115282714 -0.12092602 0.057442717 -0.13114248 -0.023851048 0.10964022 -0.05313647 0.005832686
-0.1004944 0.028702304 0.08902891 0.100134395 -0.090990074 -0.020259531 -0.041238524 0.08802847
-0.000223864 -0.045387376 -0.06581645 0.08777618 0.049653348 0.11959408 0.084261015 -0.00873709
-0.024772288 -0.119368054 -0.006501082 -0.05606172 -0.0051381495 -0.048234675 0.10063686 -0.10840963
0.0055741714 -0.04275508 -0.10307895 0.07925176 -0.008960307 -0.003123536 0.088251226 0.02436029
0.08329696 0.108809024 0.015539743 -0.049892623 0.038889643 -0.09422921 -0.10239927 -0.062000573
0.05596483 -0.017138446 -0.03467598 -0.002798125 -0.004565643 0.0139336195 0.051829748 0.08630428
0.030988764 0.13809234 -0.0937166 0.047161896 -0.12937091 -0.011540761 -0.0053441613 0.1256319
-0.06175825 0.06081067 -0.04833566 -0.031742357 0.046720695 0.1131091 -0.078505956 -0.011553886
0.0031280806 -0.10940565 0.0069123656 -0.12368525 0.103093475 0.038074113 0.14194645 0.013487065
0.1322889 0.078961335 0.07910963 -0.070260584 0.12095059 0.025751472 0.02933875 0.08581271
-0.061098456 0.096638635 -0.042417683 -0.0989927 0.039076447 0.07606249 -0.15307203 -0.031084597
0.13607441 -0.08833175 -0.06052665 0.034886487 -0.022736868 -0.009075369 0.11157234 -0.060174026
-0.044188306 0.062151026 0.122775994 0.068919316 0.097327955 -0.074388 -0.003747122 -0.06491453
0.09973545 0.13501993 0.031864002 0.11517679 0.10454967 0.092025176 -0.019003462 0.017461842
-0.10251696 -0.015228865 -0.10340202 0.0720846 0.05863497 0.100596756 0.019628663 -0.10418954
0.05380717 0.08756651 0.0689812 0.13791615 -0.15403728 0.07768555 0.028465144 -0.0067878347
0.11563941 -0.054251026 0.049269214 0.034773946 -0.1374339 0.106689885 -0.03099028 -0.11198295
-0.104258426 0.14526303 0.036254052 0.13296203 -0.036392815 0.11103012 -0.0097162 0.10291898
-0.10228377 0.064288534 0.13312036 0.04008179 0.031024734 -0.09380939 -0.05536431 -0.06010996
0.014758688 -0.09801713 0.066202834 0.09686847 0.11481841 0.1257315 0.01100789 -0.040579334
-0.02228786 -0.009636905 0.03284498 -0.015162241 -0.07038318 0.14340355 -0.106206425 0.10536076
0.060228847 -0.095830955 0.048419338 0.044806197 0.011265867 0.077842094 -0.053320386 0.0821403
00000000: c78d 80bd 5d9e 1ebd 7e84 01be bc39 b73d
00000010: d2f8 acbc 7dce 163d 4435 cfbd 22b4 a9bc
00000020: 96a7 f3bd 9d81 b8bd 04b9 de3c 59dd eabd
00000030: 3dc9 89bd bf3b 8c3d 932f a53d bc5b 29bc
00000040: a6dd 263d 1dce d43d dfc0 c2bd b7fa 383d
00000050: faa1 a13d c620 ae3d 20a6 cfbb 5d86 8fbd
00000060: ca92 eebd 9d00 0f3d 9bc3 ccbc 2619 1dbd
00000070: 664d 9f3d 88ba bc3d f583 943d 519c ee3b
00000080: 4f54 223c 14ca 9abd a414 c9bc 7fb5 03bd
00000090: 99ce 003d b58e 0abd 4e50 84bd fa6b c23d
000000a0: b822 f8bd 0184 2d3d f3d2 33bc 5ceb f4bd
000000b0: 8bcd f23c 60d1 b9bd c4cb 723d f09c b83d
000000c0: ee90 05bd 10ad e43d bd12 08be 244d b53d
000000d0: a9d8 b43c cb9f 713b eec2 febc a510 1fbd
000000e0: bc3a debd 8a7d 49bc fe4a 8fbd da8b 01bc
000000f0: 8017 ee3b 19be aa3d 5aa1 853c 19ed cb3d
00000100: 2951 7b3d da98 c8bd a391 1dbd ec88 49bd
00000110: 0036 84bc cd68 633d c05a 1fbe 6e9b b83d
00000120: 5819 ecbd 10a8 f7bd 0e49 6b3d 374a 06be
00000130: 4663 c3bc 0d8b e03d a1a5 59bd 1e20 bf3b
00000140: 02d0 cdbd 1821 eb3c ca54 b63d 4313 cd3d
00000150: 0159 babd 51f7 a5bc bae9 28bd 4548 b43d
00000160: 09bd 6ab9 1de8 39bd c6ca 86bd ffc3 b33d
00000170: 4f61 4b3d beed f43d 0a91 ac3d 0326 0fbc
00000180: 41ef cabc 3d77 f4bd 0707 d5bb f9a0 65bd
00000190: ec5d a8bb b991 45bd b31a ce3d de05 debd
000001a0: 8aa7 b63b f31f 2fbd 0e1b d3bd bf4e a23d
000001b0: 40ce 12bc 3db4 4cbb 0fbd b43d 3b8f c73c
000001c0: 9997 aa3d 44d7 de3d 689a 7e3c 355c 4cbd
000001d0: bf4a 1f3d 3efb c0bd b5b6 d1bd 50f4 7dbd
000001e0: 613b 653d ed65 8cbc 6708 0ebd bf60 37bb
000001f0: 649b 95bb d649 643c 6e4b 543d 4cc0 b03d
00000200: 26dc fd3c 1468 0d3e 7dee bfbd d52c 413d
00000210: cf79 04be 7615 3dbc 131e afbb a6a5 003e
00000220: 38f6 7cbd 9c14 793d 9dfb 45bd 4604 02bd
00000230: 335e 3f3d bea5 e73d bbc7 a0bd 834c 3dbc
00000240: 7c00 4d3b 1210 e0bd 2081 e23b b14e fdbd
00000250: ac22 d33d 9af3 1b3d 695a 113e daf8 5c3c
00000260: be76 073e 7bb6 a13d 3b04 a23d c8e4 8fbd
00000270: f1b4 f73d c0f4 d23c d157 f03c 93be af3d
00000280: 6042 7abd 7aea c53d 2abe 2dbd afbc cabd
00000290: a00e 203d a7c6 9b3d eabe 1cbe 20a5 febc
000002a0: 1757 0b3e 47e7 b4bd cbea 77bd 22e5 0e3d
000002b0: ab42 babc dbb0 14bc 0a80 e43d 0a79 76bd
000002c0: ccfe 34bd 1392 7e3d fb71 fb3d 9225 8d3d
000002d0: e153 c73d bc58 98bd 4692 75bb e9f1 84bd
000002e0: 1a42 cc3d aa42 0a3e d483 023d cfe1 eb3d
000002f0: 231e d63d b277 bc3d 26ad 9bbc 230c 8f3c
00000300: 69f4 d1bd 7d82 79bc 70c4 d3bd 17a1 933d
00000310: 392b 703d ac05 ce3d 4acc a03c 5361 d5bd
00000320: e864 5c3d 1256 b33d 0446 8d3d e439 0d3e
00000330: f3bb 1dbe 9a19 9f3d bc2f e93c 7c6c debb
00000340: 5bd4 ec3d 5336 5ebd 84ce 493d 206f 0e3d
00000350: 79bb 0cbe 3a80 da3d 54df fdbc 5157 e5bd
00000360: 7185 d5bd d5bf 143e 217f 143d 3327 083e
00000370: a210 15bd c263 e33d b230 1fbc 30c7 d23d
00000380: 277a d1bd b5a9 833d b450 083e ce2c 243d
00000390: 9527 fe3c 231f c0bd b0c5 62bd dd35 76bd
000003a0: 6dce 713c 34bd c8bd 5a95 873d fa62 c63d
000003b0: ea25 eb3d c2bf 003e 705a 343c 8436 26bd
000003c0: 0895 b6bc 1ce4 1dbc 7588 063d 0c6b 78bc
000003d0: 0f25 90bd 61d8 123e c182 d9bd 62c7 d73d
000003e0: 86b2 763d 0543 c4bd 5b53 463d b486 373d
000003f0: 7994 383c ad6b 9f3d 7a66 5abd 2c39 a83d

net.4.bias f4 [6]
-0.14044102 -0.010916668 0.10367372 0.06858153 0.09175136 -0.08227232
00000000: c5cf 0fbe d3db 32bc e352 d43d 7974 8c3d
00000010: 23e8 bb3d 647e a8bd
