simple_2d_deliver_pickup/pickup_model.pth (torch, 23441 bytes, 6 tensors)

net.0.weight f4 [64, 7]
00000000: bbbf af3e 610e 7b3e e6bd a43e 5568 5e3d
00000010: 7253 aebd 0bb5 593e 0ef5 b8be e5a6 2c3e
00000020: 4d5b 2bbd b4eb 64bb 8456 c33e a08a a53e
00000030: 5e50 863e d8b6 a03e 336e 283e 6326 9cbe
00000040: 3e54 c43e 0c4d d23c 0dd3 af3e 79ca a93e
00000050: 8df4 84bd 22a6 c33e 9a91 9dbe 3c2a 88bd
00000060: b510 883d 73e7 06bd f532 fbbd 65c6 bfbe
00000070: 7bfe 88be 6882 ed3d 3f5c afbe e524 d03d
00000080: 02e1 1e3e 5b11 8f3e e0cf 0b3e db89 823e
00000090: 6a52 c9bc fc9b 2a3e 2549 0c3e 5bc3 50be
000000a0: a153 af3e 35b7 36be 9f30 893e f83c a23e
000000b0: dbe9 67be 41f8 04be 1d3f 9b3d c43b b43e
000000c0: fd70 5ebe 634f 8f3e a392 9ebd 31ed a1be
000000d0: d211 9bbd 67f7 cbbb e8e3 b03e d293 5abe
000000e0: 3c56 58be 3bf3 6f3e 5a40 ed3d 274e 15bd
000000f0: 0c4b 4e3d abe5 0dbd 66e8 b73e f407 a1be
00000100: 2c39 bcbe c6ac dc3c dc33 8abe 2ae0 9a3d
00000110: 3edd f23d ce01 a03c 420f 563e 6f42 dd3c
00000120: 78de bfbd 87d1 9e3e 125f 63be d143 e13c
00000130: 1f6e 8b3e 5e81 a13c 7989 973e 8086 9ebd
00000140: 3f56 c9bd 6fd0 4fbe 7bb8 663d 5c43 31bc
00000150: 338f 5f3d 7426 a43e 217c 84be 0d5a c7bd
00000160: b981 763e 1d07 bdbd 296c 6d3e 62f8 edbd
00000170: fff9 833d 7017 0e3e 102e 343e 364c 703e
00000180: 1a25 c73e 1841 433d f6a7 933e 595e ec3d
00000190: 994e 8b3e a6c1 8f3e 11b4 8fbe 4533 ac3d
000001a0: ecc9 85be bdbd dc3d 1844 ae3d 791a 9e3e
000001b0: e514 68bc d9a7 7d3e b344 4fbd deae 563c
000001c0: cb74 34bc ddef ec3d edeb 763e 0415 89be
000001d0: feef 863c bde3 eebd a529 0a3e 8c7a d9bd
000001e0: ac31 b53e bd14 a0be c39d b7be a238 a9be
000001f0: 7858 b0bb 3152 163e ef80 98be e693 a03e
00000200: 0a35 873e ca39 623d 6e95 3dbe 50ff 73bc
00000210: 1913 973d 5030 1cbc 6988 0c3e 06f7 e5bd
00000220: 871d 493d cd2f 123e b1dc 01be a31b 473e
00000230: 5146 9fbe 0648 5ebe 3cbd 86bd 04f9 a2be
00000240: 4712 b83e 3872 c3be eea2 be3e 0c6d 0b39
00000250: 20bc 41be ef10 a1be fc41 b23e 7e41 1c3e
00000260: a2f8 ce3d 8554 00be e347 983e c1d4 a4be
00000270: 074b 10bd 2a40 323e c98b d1bd 60d2 b13e
00000280: 18c8 8ebe b64c b8be e521 f0bd d670 6b3e
00000290: 650c a7be e025 89be 32ea 5cbd 2cd4 93be
000002a0: f212 8c3e 63c9 4cbe 2b3e a33e 30b0 44be
000002b0: d89c b53e cc84 853e b0fa adbe c7cc 8b3e
000002c0: 58ff a1bd 9599 7abe c3ce 4e3d 8cd7 f9bc
000002d0: 51fd 8abe 67d3 883e 5889 0bbe 2bdf a2be
000002e0: a331 3c3e 6a0e 8fbe 8207 2cbd c483 e1bb
000002f0: e725 a9be 257a 8cbe dd6f c2bd 2185 21be
00000300: 8196 a0be ad94 963e c34c 27be ae36 acbe
00000310: 1e6e 1f3e 1541 07be 0d91 c33e 77c0 88be
00000320: 61dc c03e dd0d 63be 6653 ac3e 9bbe 3ebe
00000330: 7a16 e33b 741f b53e fb58 373e 049d 8dbe
00000340: dd44 87be 7a1c b63e b479 92bd 2f7b 7a3c
00000350: 1460 38be 3b14 ef3a 7030 0fbe 5344 023e
00000360: cda9 473e fc5e a93e 3456 86bc ad90 8fbe
00000370: e731 2a3d 1dab 553e 6a7f 753e e1ec 8e3e
00000380: 8e10 3bbc a388 07be a8a3 44be ae54 ae3e
00000390: f32c 783e 95b7 523b b24b 183e b775 533e
000003a0: 2143 35be 318c d7bd 0f54 d53d cea3 a53e
000003b0: 9834 2dbe 77d2 1f3c 915a 853e 8a88 a3bd
000003c0: ed5c 8ebd 75bd 09be 8e9e 933a d254 823e
000003d0: 7dd5 933c 6686 c63d f8bd 823e cccf 943e
000003e0: 2eee 82bd 69f4 71be f2e0 433d 224e b4be
000003f0: 8ebc 133e 336d 873e c788 7cbe f314 8cbe
0.34325966 0.24517204 0.3217613 0.054298718 -0.0851201 0.21260469 -0.36124462 0.1686054
-0.041835118 -0.003493053 0.38151944 0.32332325 0.2623319 0.313895 0.16448288 -0.30498037
0.38345522 0.025671504 0.34340706 0.33162287 -0.06491957 0.38212687 -0.30775148 -0.066486806
0.066438116 -0.03293557 -0.12265579 -0.3745605 -0.26756653 0.11597139 -0.34250066 0.10163287
0.15515521 0.2794293 0.13653517 0.254958 -0.02457543 0.16661066 0.13699777 -0.20387022
0.3424349 -0.17843325 0.26794907 0.3168714 -0.22647803 -0.12985326 0.07580397 0.35201848
-0.21722789 0.27990255 -0.077428125 -0.31626275 -0.07571758 -0.006224561 0.3454888 -0.21345451
-0.21126646 0.23432629 0.1158454 -0.036451485 0.05036454 -0.034642857 0.35919493 -0.3145138
-0.3676237 0.026937854 -0.2699269 0.07562287 0.11858605 0.01953211 0.20904258 0.027009217
-0.093686044 0.31019232 -0.22204235 0.027498158 0.27232453 0.019715007 0.2959707 -0.077404976
-0.09830903 -0.20294355 0.056328278 -0.010819282 0.054579925 0.32060587 -0.25875953 -0.09733973
0.24072923 -0.092298724 0.23185791 -0.11619641 0.06444167 0.13876128 0.17595696 0.23466572
0.38895494 0.0476695 0.28839082 0.11541433 0.27208403 0.2807743 -0.28067067 0.084082164
-0.26130617 0.10778377 0.085090816 0.30879572 -0.014165138 0.2477106 -0.050602626 0.013103215
-0.011014174 0.11569188 0.24113436 -0.26773846 0.016471859 -0.116645314 0.13492449 -0.10619077
0.3538946 -0.31265822 -0.3586255 -0.3305102 -0.00538164 0.14679791 -0.2978587 0.31362838
0.26407653 0.055230893 -0.18514034 -0.014892414 0.073766895 -0.009533003 0.13723911 -0.112287566
0.049100425 0.14276047 -0.12681843 0.19444136 -0.31108335 -0.21707162 -0.06579062 -0.3183061
0.35951445 -0.3817308 0.3723368 0.00013296696 -0.1891942 -0.31458232 0.34815967 0.15259358
0.10106017 -0.12532242 0.29742345 -0.32193568 -0.0352278 0.17407289 -0.1023174 0.34730816
-0.27887034 -0.35996026 -0.11725215 0.22992262 -0.32626644 -0.2678671 -0.053934284 -0.28872812
0.27358204 -0.19998698 0.31883368 -0.19207835 0.35471225 0.26077878 -0.33980322 0.2730467
-0.07910031 -0.2447265 0.050490152 -0.030498289 -0.2714639 0.26723787 -0.13626611 -0.3181089
0.1837831 -0.27940685 -0.041999348 -0.0068821628 -0.3303673 -0.2743694 -0.094939925 -0.15773441
-0.31364825 0.29410306 -0.16337876 -0.33635467 0.1556935 -0.1320842 0.38196602 -0.2670934
0.37668136 -0.22173257 0.33657378 -0.18627398 0.0069301696 0.3537556 0.17905037 -0.27658856
-0.26419726 0.355686 -0.07152119 0.015288158 -0.18005401 0.0018240282 -0.13983321 0.12721376
0.19498368 0.3308028 -0.016398527 -0.28040066 0.041551497 0.20866056 0.23974386 0.279151
-0.011417521 -0.13235717 -0.19203055 0.3404898 0.24235897 0.003215288 0.14872625 0.20650373
-0.17701389 -0.10524786 0.104164235 0.32351536 -0.16914594 0.009754769 0.2604566 -0.07985027
-0.06951318 -0.13451178 0.0011262463 0.25455338 0.018046135 0.09693603 0.2553556 0.29064786
-0.063930854 -0.23628391 0.047821946 -0.3521586 0.14427397 0.264505 -0.24661551 -0.27359733

net.0.bias f4 [64]
00000000: 3e49 a0be 4821 443e 50f8 6bbe e1f0 b1bd
00000010: 86e7 80be 2c0c 5e3e f5da 8a3e 56c2 103e
00000020: b0bc ebbd d843 87be c47b 58be 35fb 97bd
00000030: 0c24 91be 182f a73e 63cb 0ebe b781 aabe
00000040: d0ea bc3e 7aac 88be cd9f 463d ade5 dd3c
00000050: 1928 f8bd d42b 6d3d 4418 2abe bc9c c03c
00000060: d9a8 673e 662b a0be 592f 083e 19f7 efbd
00000070: 87cd eb3d 9476 dcbc 2c9c 6fbd 42f1 a93e
00000080: 69c1 a1be 8539 2cbd 5063 bf3e 8fe6 9a3e
00000090: de42 aabe 6402 b53e 51eb 3d3d 4d82 5e3e
000000a0: 0bd8 353e dc8f c93e 86c4 0b3e 1cfe ff3d
000000b0: 8972 133e 483e b13d 5013 0dbd 0720 c33e
000000c0: c6bd 82be 458f 4d3e b52a 63be b999 a23e
000000d0: 4656 90bc 96cd 87be 5265 433d c04f 253d
000000e0: 9efb 91be 3200 9cbe 89d4 903e d84e b6be
000000f0: d1ce d03d ffc2 f13d 36fe 3a3d 4eb7 8e3d
-0.3130588 0.19153321 -0.23043942 -0.08688522 -0.25176638 0.2168433 0.27120176 0.14136633
-0.11510599 -0.26418948 -0.21140963 -0.07420961 -0.28347814 0.32653117 -0.13944773 -0.3330209
0.36897898 -0.2669409 0.04849224 0.027087057 -0.12117023 0.057903126 -0.16610819 0.023512237
0.22623004 -0.3128311 0.13299312 -0.11717052 0.115138106 -0.026912011 -0.058498546 0.33191878
-0.31592873 -0.042047042 0.37380457 0.30254027 -0.3325414 0.35353386 0.046366993 0.21729393
0.17758195 0.39367568 0.13649186 0.124996394 0.1439916 0.08654457 -0.034442246 0.38110372
-0.2553541 0.20074184 -0.2218426 0.31757906 -0.017619263 -0.26524037 0.04770405 0.04035926
-0.2851228 -0.304689 0.2828715 -0.35607028 0.10195697 0.11804771 0.04565259 0.06968556

net.2.weight f4 [64, 64]
00000000: 13cb 32bc 2e10 9bbd 4204 533c f4d1 ca3d
00000010: b236 b23c 6d57 0b3e 6a99 24bd 6503 503d
00000020: e731 53bd dbd8 fbbd 7bfa 3ebc c246 99bc
00000030: 021d 253d 0f64 cebd 54bf 2c3b 215c c53d
00000040: 2a5c 27bd b04b dd3d 0893 063b 61be 6a3d
00000050: c952 dc3d a535 c1bd c502 a5bc 7657 ddbc
00000060: 26ec b4bd f2f8 0e3e 578b 7e3c b450 a53d
00000070: 73ff da3d 354f a7bc d0dd 77bd 758f 9f3d
00000080: 604a c53d bab4 413d 0692 66bd e643 563d
00000090: 04fd bcbd 9d38 c0bc 2fb5 0a3e 7883 df3d
000000a0: 0a07 c83d 4d32 c73c aa9c bbbd ed23 8b3d
000000b0: 303b 9cbc a848 19bd 14be 0abd 82af 043e
000000c0: 0df8 5a3d d711 a73c 1c0c c6bd f7a9 f43d
000000d0: b530 d6bd a602 183d 8d00 fd3d b844 c23c
000000e0: cadd d43c b320 893d c11a d1bc 911b f53d
000000f0: 33c4 f73d e183 a33d a6e7 80bd 7b56 65bd
00000100: b8b8 c43d c8f9 5dbd b224 bcbd 2013 913b
00000110: 4044 013d c424 b1bd c07a cb3b b0bb 9e3c
00000120: a4b9 42bd 50bd 503d 860b e83d 30eb 1a3c
00000130: 7eec 82bd c4cc c1bd 2092 84bd 0809 83bd
00000140: 8625 a73d 3881 a83c 409b b1bd e8c4 a93c
00000150: 3852 963c d0e7 7dbd 541d 983d ee07 a23d
00000160: d86e 90bc c0a0 a43d 1817 cfbd 4212 84bd
00000170: 3cc3 b5bd 4c47 25bd 4849 a2bc 0e9e fabd
00000180: c833 d13d d610 b83d 80f2 913d 488a 8ebc
00000190: 2099 56bc d869 04bd f097 153c 00a5 73ba
000001a0: 94dd 833d 0072 e1b9 16fb d33d b430 783d
000001b0: 8041 383d 4c71 b6bd 7866 a13c 5cdc 823d
000001c0: 3c5a 25bd 40d3 d0bc f28d b9bd 0074 debb
000001d0: 50d2 d7bd acff 733d a20f 8cbd 0eb1 f83d
000001e0: 54ff d5bd febe d8bd e498 90bd dc85 213d
000001f0: 1c45 b8bd 065b 80bd 0049 5d3a 8c91 a83d
00000200: 9be0 ea3c 40b1 db3d 9b9b 4dbc 930b 60bd
00000210: a699 01be 4f15 a73c 57d6 1f3d 51b3 b03d
00000220: 2c43 cfbc 8c9f c4bd ec76 9a3d e97c 063d
00000230: cbb1 adbd e408 a83d 8afb 5ebd ed65 843d
00000240: 165a ebbd c172 793c dbb9 00be 0e0a 5cbd
00000250: 2b76 923d 2d63 143c fa4c 4cbd 60d8 453d
00000260: 2f22 963d 84fb 74bd f7d2 06be 3b83 d73d
00000270: 7b2f 3dbd 130b a6bd a3fd 9abd bc42 df3b
00000280: aaf3 c03c df35 c03d 6414 96bd 017e 40bd
00000290: 5a19 5f3b 393e 533d c3e5 37bd d094 3abc
000002a0: 7e56 863d 7b8a 013c 0dcb 123d b869 a73d
000002b0: b2cc 143d 75f5 ce3d 502b 15be d631 043d
000002c0: 68b7 1ebd f45f ca3d 879f 093e 4f11 17be
000002d0: 4e7d a5bc a4fd cebb 9cd1 dbbc 61de de3c
000002e0: 6117 a03b aa23 233c ac42 813d d764 ba3d
000002f0: c87a 2fbd fc6e d9bd 144a 10be b594 79bd
00000300: 2e06 8ebd b038 b93c b469 9f3d a26e 41bd
00000310: 5655 cbbd 6baa ed3d 00ba c63d fefd 1e3e
00000320: d2d3 59bd 1a95 abbc 603b af3d bac5 943d
00000330: a6c7 afbc e58e b7bb a5f4 4e3d 1e42 d43d
00000340: 16dd ba3d 11d9 1cbd 6684 123d aa56 db3d
00000350: 2273 d8bd 9a74 733c 954d 033e 2d45 babd
00000360: cbf3 cdbd 58e6 30bc 99fe 283d fc0a aebd
00000370: 4d8a 293d dd22 bbbd b0ca 8d3d ba66 e73b
00000380: fd9f 93bd 88df e73d 80fe c93c 5546 02bd
00000390: e688 d53c 1e85 bbbd ca32 bbbd 2f78 c7bd
000003a0: f7cb 233d 636d debc e699 ba3d 04ac cf3d
000003b0: cceb 013d 212c 8fbb bfd7 e4bd 3458 9b3c
000003c0: 32d0 ef3d ad0d ea3c 248b 30bc 5651 b5bd
000003d0: 3739 02be 8e5f 0c3c d593 8c3d 30ff 913d
000003e0: 6bcb ba3c d372 ef3a ed9c 4a3d 2bf3 e13d
000003f0: a63b b7bd 2606 66bd 04ed 223d 8969 d9bd
-0.0109126745 -0.075714454 0.012879433 0.09903327 0.021754596 0.13607569 -0.04018537 0.050784487
-0.051561262 -0.12297221 -0.011656399 -0.018710498 0.040310867 -0.100776784 0.0026359158 0.09636713
-0.04085938 0.10805452 0.0020534415 0.057310466 0.107579775 -0.0943406 -0.020142922 -0.027019244
-0.08834104 0.13962153 0.015536151 0.080720335 0.10693254 -0.020423511 -0.06051427 0.07791034
0.096333265 0.047291495 -0.056291603 0.052310847 -0.092279464 -0.023464495 0.13545679 0.109137475
0.097669676 0.024315977 -0.09160741 0.06793962 -0.019071192 -0.037422806 -0.03387268 0.12957576
0.053459216 0.020394249 -0.096702784 0.11946481 -0.10458509 0.0371119 0.12353621 0.023714408
0.025984664 0.0669569 -0.025525453 0.119681485 0.12097969 0.07984138 -0.062941834 -0.055990677
0.09605545 -0.054193288 -0.091866866 0.0044273287 0.03155923 -0.086495906 0.0062097013 0.019376606
-0.047540322 0.050961792 0.11330323 0.009455487 -0.063927636 -0.09462884 -0.06473184 -0.06398207
0.08161454 0.020569429 -0.0867219 0.020723775 0.018349752 -0.06198865 0.07427469 0.07911669
-0.01763098 0.08038473 -0.10111827 -0.06448795 -0.088751286 -0.040351197 -0.019810334 -0.12237178
0.102149546 0.08987586 0.07126331 -0.017399922 -0.013098031 -0.032327503 0.009130463 -0.0009294301
0.06438747 -0.0004300028 0.10350625 0.060593322 0.04498434 -0.089083284 0.019702181 0.063896865
-0.040369257 -0.025491357 -0.09060277 -0.0067887306 -0.10538161 0.05957 -0.06838919 0.121431455
-0.104490906 -0.10583304 -0.070604116 0.0394343 -0.089975566 -0.06267361 0.0008441359 0.08230886
0.028671553 0.10727167 -0.012549306 -0.054698538 -0.12656268 0.020395903 0.03902277 0.08627952
-0.025300585 -0.09600744 0.07542214 0.032833967 -0.08481177 0.08204821 -0.054439105 0.06464753
-0.11491792 0.015225113 -0.12570898 -0.053720526 0.07151445 0.0090568485 -0.049878098 0.048302054
0.07330739 -0.059810176 -0.13166414 0.10523077 -0.04618786 -0.08107581 -0.075679086 0.0068133753
0.023553688 0.09385275 -0.07328108 -0.046995167 0.003404221 0.051573012 -0.044896852 -0.011388019
0.06559466 0.0079065515 0.035838176 0.08174461 0.036328025 0.10105411 -0.14567304 0.03227409
-0.03874913 0.09881583 0.13439761 -0.14752696 -0.020201351 -0.0063168574 -0.026833348 0.027205648
0.0048855995 0.009957233 0.06311545 0.09101265 -0.042841703 -0.10616872 -0.14090759 -0.060932834
-0.069347724 0.022610039 0.07783833 -0.04722465 -0.09928386 0.1160477 0.097034454 0.15526578
-0.053180523 -0.02094512 0.08556247 0.07264276 -0.021457504 -0.005601751 0.05052628 0.10364173
0.091242 -0.03829295 0.035770796 0.10709889 -0.10568835 0.014859343 0.12822564 -0.090952255
-0.100562654 -0.010797106 0.04125843 -0.08498189 0.04139166 -0.09137509 0.06923425 0.0070618065
-0.0720825 0.11321932 0.024657488 -0.031805355 0.026066255 -0.091562495 -0.091405466 -0.0973972
0.039989438 -0.027151769 0.09111385 0.10140231 0.031719014 -0.0043692742 -0.11173963 0.018962957
0.11709632 0.028570974 -0.010775361 -0.08853404 -0.12717138 0.008567704 0.06864134 0.07128751
0.022802075 0.0018268473 0.049466062 0.11032709 -0.08946924 -0.056158207 0.039776817 -0.10615832

net.2.bias f4 [64]
00000000: 0ee5 ef3d 18e2 c6bc 8320 06be 4749 cb3c
00000010: 0f05 c6bd 002e 01be 79fa 17bd ffc7 07be
00000020: da87 2fbd 8fd5 813d e86c a43c d65d 0f3b
00000030: 2c94 b7bd 6887 013e 77b8 d53d 60e1 ab3d
00000040: 3a1c b2bd c692 f6bd 370a 89bc 1972 dbbc
00000050: 24df 08bd 27f2 29bd 9d60 cabd d6f9 ee3c
00000060: 480d c73d f51c a0bd 4e40 d0bd bcce 453d
00000070: 2a28 e43d fbaf fe3c 6efc eebd 728b 03bc
00000080: f9fc 213d a3c2 6cbc 00f7 78bd 0821 343d
00000090: da0b db3d 3398 be3d 4cae bfbc ba3a 08bc
000000a0: 8374 a93d 5a38 093e 5d0b e83d 38b4 8b3d
000000b0: d9f4 69bd ac97 00be 7388 043e 1ed5 a0bd
000000c0: e96d 8a3d 7cf3 c2bd f1c2 a4bc e20d cdbc
000000d0: 063d 073e b77f 9b3d 18ea 983d 34c8 e1bc
000000e0: 6b3b e9bc 972d 09be b2eb 563d 798d c43c
000000f0: 9c2c 8abd 78c4 8f3c e510 af3c 9c6a 403d
0.117136106 -0.024277732 -0.1309834 0.024815215 -0.096689336 -0.12615204 -0.037104104 -0.13259886
-0.042854168 0.06339561 0.020071462 0.0021876 -0.089638084 0.1264931 0.104355745 0.08392596
-0.0869679 -0.120397136 -0.016728504 -0.026787804 -0.03341593 -0.0414907 -0.09881709 0.029171865
0.0971933 -0.07818023 -0.10168515 0.04829286 0.11140473 0.031089773 -0.11669241 -0.008028852
0.039547894 -0.014450702 -0.060782433 0.043976814 0.1069562 0.093063734 -0.02339854 -0.008314783
0.08274176 0.13400403 0.113302924 0.068214834 -0.05711827 -0.12557858 0.12942676 -0.07853149
0.06759245 -0.09519097 -0.020112487 -0.025031034 0.13206872 0.07592719 0.07466525 -0.027561285
-0.028470716 -0.13396297 0.05247087 0.02399324 -0.0674679 0.017549738 0.02137036 0.04697667

net.4.weight f4 [6, 64]
00000000: cb9a 72bd 108b 53bd 8b78 1fbd daaa 4fbd
00000010: c850 2cbd 048d 8abd a2d6 8abc d4eb dcbd
00000020: af03 f6bc 5e4e 1e3d 4406 693d ab4e ebbd
00000030: 5495 0e3d 0b30 833d 6113 43bb 9775 23bd
00000040: 1411 e1bd d74e 62bd 9de4 0dbd 9405 98bd
00000050: 4222 d73d 9326 453d f72f 833b 35d2 4c3d
00000060: cfdc 82bd ec86 d7bd 3cbd 5cbd 6f80 9fbd
00000070: c41b c4bd 0530 9a3d ecc8 323d ef01 363d
00000080: 935f 57bd 6560 01be 986a 593d 6000 cdbc
00000090: 9694 56bd 9f78 c6bd c39d 90bd 5d8d 2f3d
000000a0: 8068 eb3c dee7 7cbd 55e4 dc3d e16c a2bd
000000b0: 5837 ca3c 52ee 54bd 817d d1bd f2d4 b1bc
000000c0: d298 f83d 1344 98bd e0e7 28ba 955b bfbd
000000d0: b28e 933d 0127 03be 84f5 c93d cf06 2fbd
000000e0: cc26 2c3d 150f d7bd 7ae4 3d3d e7f8 1fbd
000000f0: c496 6abd 37e1 283d 0974 88bd 6f74 e43d
00000100: 5531 b33b 886c c43d cb9d c93c e9e5 a8ba
00000110: dea7 42bd 81da 583d d8f4 803d 8116 ecbc
00000120: ccaa 963c e5aa 2c3d 3665 fd3d 2b16 02bb
00000130: d082 bebc 1350 c0bd d797 bdbc ca43 0d3d
00000140: ee2a dabd 8d7d b6bd 96d8 71bd ca4c 563d
00000150: 9055 763d 1c7e 64bd a706 7dbd 01b4 ac3d
00000160: e0fc c03c e298 f5bd 1e97 953d fc13 bbbd
00000170: 471b fc3c 13e8 82bd f0cc c23c 524b 82bd
00000180: bc5c babd 90a0 8f3d 426a e23d 60a1 213d
00000190: 780e a53d 41ae 87bd 074b 553d 120e de3d
000001a0: 0517 d8bd 8c0b f93c 0e6b 913d 6b65 a8bc
000001b0: f7bd 92bd 5185 053d b641 8cbd 74bb 173c
000001c0: ccf8 00be d3c2 33bd f73e 213d 46fd b6bc
000001d0: 3a95 4d3c 276f acbd af77 c33d dc52 b5bd
000001e0: 8d6c f53c 220d 5d3d 21a6 6f3d b87c 23bb
000001f0: 6022 96bd 6d2e 7bbc 0e44 d83d 1d08 a0bc
00000200: 1fb8 803d b2a0 c3bd 0d4d 563d 16f0 f13d
00000210: 8020 7abc d702 efbc df43 f8bb 52ad c03c
00000220: ddbf 003e 4210 043e 7824 35bd d14c 433d
00000230: 30d5 013c 206d 7a3d 1761 de3d 68b4 b03c
00000240: fc83 5c3d 0167 58bd defc d73d 00f4 11bd
00000250: 1ec6 bdbd f8cb 9a3b f9fa babc b16b f13d
00000260: def0 a7bd b00d 99bd e8e3 86bd 7c82 10be
00000270: ca68 523c d5db 103e fc32 52bd 913e 833d
00000280: 4f79 6abd 6ca0 e53d c4d1 4c3d acea 003d
00000290: 3e5d fc3b 5717 ee3d 4ccb 2f3a 3223 f2ba
000002a0: 5120 06be d239 cd3d b312 193c df51 fcbd
000002b0: 425b 373d 9bdd 923d 64ca 86bd fa1e 7fbd
000002c0: dfe3 c73d 9ffe 02bd 4866 f63d e9dd 87bd
000002d0: 0d09 1d3e 81e9 cf3c 489a 95bd 9636 9bbd
000002e0: d47d 0b3e c8c6 373d 8d8b 063b 7a78 6d3d
000002f0: d060 9d3c 04ca 73bd f23c f03d 477c 903d
00000300: ac8e e13c 76aa cbbd 77d4 48bc ea66 8bbb
00000310: b501 163d 1412 e13d 4bc9 e03d 65a4 4bbd
00000320: aec4 f13d 55c2 d53d 18f8 a73d 5ea1 803d
00000330: b0c6 8c3d f122 f9bd 6150 a0bd 7770 29bb
00000340: a21f a4bd 7808 4fbd f656 033d 36d9 bcbd
00000350: 82b8 ba3d 6bab 8e3c 7e05 1dbd 5748 febc
00000360: 6229 86bd 9266 53bd d0c9 1bbc 1e31 1a3e
00000370: 6876 c83d e31d 26bd c4c8 98bd cd73 c3bd
00000380: ae4b b83d a031 0dbc 5c1a 033d 042f c73d
00000390: 5390 9e3a 6e0a fabd f3e0 193d fef0 163d
000003a0: ba8f 073e 937e d0bd 30a0 07bd 92f0 a13d
000003b0: 6b4a 97bd 3d3f 36bd da82 933d b93d 0abe
000003c0: ca47 b2bd 5c1d 063e 65d5 943d 1b2d a4bc
000003d0: c9b8 e0bd ac53 84bc d3c1 133e 0c4f 463c
000003e0: aaf7 623d c25d a8bb 73ce d63c 2949 12be
000003f0: dc05 dbbd 547a d53d ba99 ec3c 517a 403d
-0.059229653 -0.051646292 -0.038933318 -0.050700046 -0.042069227 -0.06765178 -0.016948048 -0.10787168
-0.030031053 0.038648956 0.05689074 -0.11489614 0.03481038 0.06405648 -0.002976619 -0.039907064
-0.109895855 -0.05525097 -0.03464185 -0.07422939 0.10504581 0.04813249 0.0040035206 0.050005157
-0.06389772 -0.10523781 -0.053891405 -0.07788169 -0.095756084 0.0752869 0.043648645 0.044435438
-0.05258138 -0.12634428 0.05308017 -0.025024593 -0.052387796 -0.096909754 -0.07061341 0.042859424
0.028736353 -0.061744563 0.107857384 -0.07930923 0.024684593 -0.051985092 -0.10229016 -0.021707986
0.12138523 -0.07434859 -0.00064432435 -0.0934364 0.07204951 -0.12807848 0.098612815 -0.042731103
0.042029187 -0.105009235 0.04636047 -0.03905573 -0.057272688 0.041230407 -0.06662757 0.111550204
0.0054685273 0.09591013 0.024611374 -0.0012885901 -0.047523372 0.052942757 0.062967 -0.028819324
0.01839199 0.042155165 0.1237282 -0.001984964 -0.023255736 -0.09390273 -0.023143692 0.034488477
-0.106527194 -0.08910666 -0.059044443 0.052319326 0.060140193 -0.05578433 -0.061773922 0.084327705
0.02355808 -0.11992051 0.07304214 -0.09134671 0.030774726 -0.06391921 0.023779362 -0.063620225
-0.09099719 0.07013047 0.11055423 0.03946054 0.080594 -0.06625033 0.052073505 0.108425274
-0.105512656 0.030401014 0.07100497 -0.020556172 -0.07165139 0.032597844 -0.06848471 0.009261001
-0.12594908 -0.04388697 0.03936669 -0.022337567 0.012547785 -0.08419638 0.09544312 -0.08853695
0.029958988 0.053967603 0.058508042 -0.0024946164 -0.07330775 -0.015330893 0.105598554 -0.019535119
0.06285118 -0.095521346 0.052319575 0.11813371 -0.015266538 -0.029176159 -0.0075764502 0.023520146
0.1257319 0.12896827 -0.044224232 0.04768068 0.007924363 0.061139226 0.10858362 0.0215704
0.053836808 -0.052832607 0.105462775 -0.035633087 -0.092663035 0.004724022 -0.022824751 0.11788119
-0.08200239 -0.07473314 -0.065864384 -0.14112276 0.0128423665 0.1414636 -0.051318154 0.06408418
-0.057244595 0.11212239 0.050004736 0.0314738 0.007701545 0.116255455 0.0006706014 -0.0018473624
-0.13098265 0.10020794 0.009342837 -0.12320303 0.044764765 0.07171174 -0.06581572 -0.0622854
0.0976026 -0.031981107 0.12031227 -0.06634123 0.15335484 0.025379898 -0.073048174 -0.07578771
0.13622218 0.044867307 0.0020529956 0.057976224 0.019211203 -0.05951883 0.117303744 0.07054954
0.027533852 -0.09944622 -0.012257687 -0.0042542117 0.03662272 0.10989776 0.109758936 -0.049717326
0.11805092 0.104374565 0.08201617 0.06280778 0.06873834 -0.12164868 -0.07827831 -0.0025854388
-0.08013846 -0.050545186 0.032065354 -0.09221117 0.09117223 0.017415723 -0.038335316 -0.031040354
-0.06550862 -0.05161149 -0.009508565 0.15057799 0.09788209 -0.040555846 -0.07460168 -0.095435716
0.0899881 -0.008617789 0.03200756 0.097257644 0.0012097455 -0.122090206 0.037568044 0.03685092
0.13238421 -0.10180392 -0.03311175 0.07907213 -0.07387241 -0.044493902 0.07202692 -0.13500108
-0.08705099 0.13097137 0.07267264 -0.02004104 -0.10972745 -0.01615318 0.14429407 0.012103807
0.055411972 -0.00513813 0.02622149 -0.14285721 -0.10694477 0.10423723 0.028881896 0.04699165

net.4.bias f4 [6]
00000000: 64d9 b23d aa92 ba3d 05ee 15bd 5724 933d
00000010: da72 fabd 2192 eb3c
0.0873287 0.09110005 -0.036603946 0.07184666 -0.122289374 0.028756203
